data/oct_27_with_img/model499.pt (torch, 35791 bytes, 7 tensors)

log_std f4 [2]
00000000: 15f8 5dc0 16af 5cc0
-3.4682667 -3.4481864

mean.0.weight f4 [64, 60]
00000000: 9094 b0bb fff8 c7be c9c4 d6bd 96d6 0ebe
00000010: ecda 953e 3b9e c13d 5032 91bd c516 afbd
00000020: 6895 c73e 2563 fe3d f940 0cbe d1c2 9b3b
00000030: 97dc 19bd c330 eb3e 1f55 d73e 24cd b93e
00000040: 45cb 4fbe 1753 c2be dd01 8cbe 5bb1 7fbe
00000050: ce3e 333e fef5 173f b284 4f3f ded1 ba3e
00000060: a915 863e 31cf 993d b824 47bd 5162 d7be
00000070: 0bb2 61bc 4267 693e aa73 d23e 1156 8a3d
00000080: ee5c 7abe 9b2b 1abe 78bc e33c bafe fbbd
00000090: 0093 27bc e712 65be d796 6fbe 1ab9 343e
000000a0: 53e0 813e 081f 213e 1e43 febc 84c3 2dbe
000000b0: bbd7 9e3d 1627 563e 11bd bfbc d67a 23be
000000c0: feed 3fbe a0e8 c03d 8876 8a3d 1ef3 b2bd
000000d0: d91a 6c3d 42dd 9ebe 92f8 a3be 20cb 353e
000000e0: bb3d d0bc 604d 92bd 6acd e23c 8878 9cbd
000000f0: 2c2e d0bc cc9c e5be 5701 703e 54d8 b4be
00000100: 502e 643e 87b2 ecbd 0910 3b3d d0a4 b13d
00000110: a545 18be bc82 ea3d d9c6 4b3e f213 b83c
00000120: 6292 cf3e d92b 793c 7300 22bd 57e7 a9bd
00000130: 437f 88be be91 12bf bce9 4dbc 5288 943e
00000140: 7c31 d03d c7b4 8fbe 7606 443c 7aa6 743d
00000150: 0dda 11be 9052 7bbe aa26 73bd e847 7f3e
00000160: f6d7 58bd c869 713e 4780 db3d 97b7 97be
00000170: 5802 4ebe 73e9 023e 7032 97be 8d1e 54be
00000180: d31b ab3e 1fe4 683e 43f7 373e b0e7 833e
00000190: 4fa2 8abe 338a 6e3e de72 a43e 30b1 903e
000001a0: 9b61 1f3d d286 773e f803 953e 740c 5bbe
000001b0: b1d5 95bc 0c05 573c f484 2fbd 3562 713d
000001c0: 58ed 99be dc55 91be 7c41 773e 9ee1 cb3a
000001d0: f333 8a3e 7992 fdbc e4ca f5be 2c64 0fbe
000001e0: c683 4ebe 4781 833e ba0d 053f dcb2 8f3e
000001f0: 472c 19bf 68e4 7d3b e3c1 8bbd 383b 893c
00000200: 8fde 933f 6b3c fa3d b95b 8c3e c67b 9f3d
00000210: bdf9 19be ac02 3cbe 21cd 96bd d623 6cbf
00000220: d307 3bbe 965d 253e 00f8 8e3b 83bf b1bd
00000230: c9d3 b0bd 0505 333d 242d b83e 854a b1ba
00000240: dd7a a73e b49e 173e 195a 503c 4bf5 30bd
00000250: 857f 3cbe 3ddb a4bc fde5 d53e 7121 993e
00000260: 3ed7 a43e cb8b dc3d 21d9 b73e 8633 543e
00000270: 175c 443e 31fd 49bd b81c d03d 873a fcbc
00000280: c8d2 39be 3fce e0bd 8913 de3d 0e87 843d
00000290: 5be3 5b3d 8977 793e 3b32 293d 7df8 89bc
000002a0: adcf 35be 64e2 9ebd b89c 363e 04aa 39bd
000002b0: d826 efbd e989 e6be 66fa c1be f0ef 203e
000002c0: f249 893d baff a0bc eef2 62bc 39b4 643e
000002d0: bee6 b33d d051 133f 3f69 3bbe 377e d63e
000002e0: d118 3abe 28dc 9ebd 208c 6bbd ea7e ad3d
000002f0: e441 e13e 85e0 a53e 2309 5f3e c211 c2bc
00000300: 011f 58be 05bd 88bd 5bd1 953d 9b1b 96be
00000310: 9d82 68be 98f5 19be 6641 b9be ab89 f1bc
00000320: 80e6 c53d 9ad2 233e d8ce c4bd 13ee 31bc
00000330: 6a31 0fbe 4a70 103f 239b 393e d0ad f6bd
00000340: d96c 933e 9e06 b53d f46a 85be a6a8 d9be
00000350: 7416 f63d 003b 773b a9fb 1fbc 8b07 ad3d
00000360: d858 75bd 94b5 f7bd b5ec 65be bb12 cd3e
00000370: e8fa 943d 27d1 2b3e 24a5 a03e 5604 2a3e
00000380: 43d6 f8bd aa21 db3c 24aa 833d 1fab 6fbe
00000390: 8f15 faba 1ae8 ae3e da17 fc3d 1cc9 d1be
000003a0: 1d30 4fbe 3f27 abbd 5833 223e 2bbb a7be
000003b0: 284f b9bd 83a2 ab3e 9667 d23e bf65 fcbc
000003c0: 750f 6dbc d617 c03d e038 993e 7ae0 013e
000003d0: 05b2 8bbd 5974 4b3d 41f7 00be e457 003d
000003e0: 318f 4ebf 520b 613e 591c 9e3e 74c1 4f3d
000003f0: cc51 0f3e e19e 093e 9e5b 093f 2202 133f
-0.005388804 -0.39057156 -0.104867525 -0.13949046 0.29268587 0.09454008 -0.070896745 -0.08549265
0.38981175 0.12421254 -0.1369666 0.0047534485 -0.037563886 0.4593564 0.4205713 0.36289322
-0.20292385 -0.37954018 -0.27345172 -0.2497 0.17504427 0.5935973 0.8106185 0.3648824
0.261884 0.07510222 -0.048619002 -0.42067197 -0.013775359 0.22793296 0.4110387 0.06754697
-0.24449512 -0.15055697 0.02779983 -0.123044446 -0.010227919 -0.22370492 -0.23397385 0.17648736
0.25366458 0.15734494 -0.031037863 -0.16969115 0.07755991 0.20913348 -0.023405584 -0.15964827
-0.1874313 0.0941937 0.06760889 -0.08737777 0.05764279 -0.3102818 -0.32025582 0.17753267
-0.02542006 -0.07143664 0.02768584 -0.07640177 -0.025412641 -0.4484619 0.23438011 -0.35321295
0.22283292 -0.11557489 0.04566959 0.086740136 -0.14870317 0.11450717 0.19900073 0.022470448
0.4054137 0.015208208 -0.03955121 -0.08296078 -0.26659593 -0.57253635 -0.012567934 0.29010254
0.101656884 -0.2806761 0.011964431 0.059729077 -0.14243336 -0.24543214 -0.059363045 0.24929774
-0.05294033 0.23575509 0.10717826 -0.29632255 -0.20118082 0.12784366 -0.29530668 -0.20714779
0.33419666 0.22743271 0.17965417 0.257627 -0.27076957 0.23294906 0.32118887 0.28260183
0.038911443 0.24172524 0.2910459 -0.21391469 -0.018290373 0.013123762 -0.042851403 0.05893155
-0.3006389 -0.28385818 0.24146074 0.001555491 0.2699276 -0.030953633 -0.48006356 -0.14003056
-0.20167455 0.25684568 0.5197407 0.28066146 -0.59833187 0.0038740877 -0.0682409 0.01675187
1.1552294 0.12218555 0.2741373 0.0778728 -0.15036674 -0.18360394 -0.07363344 -0.9224218
-0.18264703 0.16148981 0.00436306 -0.08679106 -0.08634145 0.04370596 0.3597194 -0.0013526237
0.32710925 0.14806634 0.012716793 -0.04320268 -0.1840802 -0.020124072 0.4177703 0.29908326
0.32195467 0.10768851 0.35907844 0.2072278 0.19175754 -0.049313728 0.10161728 -0.030789627
-0.18146813 -0.10976838 0.1084357 0.06471072 0.05368362 0.24362005 0.04130767 -0.016842121
-0.17755003 -0.07758024 0.17833221 -0.045328155 -0.11677331 -0.45027092 -0.3788635 0.15716529
0.06703557 -0.01965319 -0.013851864 0.22334374 0.08784245 0.5754671 -0.18301867 0.4189317
-0.18173529 -0.07756835 -0.05750668 0.084714726 0.43995583 0.32397857 0.21780829 -0.023690108
-0.21105577 -0.066766776 0.07315322 -0.29317936 -0.22706075 -0.15035093 -0.36182708 -0.02948459
0.09663105 0.15998307 -0.09609765 -0.010859984 -0.13983694 0.5642134 0.18125586 -0.12044871
0.28793982 0.08839153 -0.2605816 -0.4251148 0.12016001 0.0037724376 -0.00976459 0.08448704
-0.05989918 -0.1209518 -0.22453578 0.40053353 0.07274419 0.16779004 0.31375992 0.16603217
-0.12150242 0.02674945 0.06428936 -0.23405121 -0.0019079911 0.34161454 0.12309237 -0.40973747
-0.20233198 -0.08357095 0.15839899 -0.32759985 -0.09048301 0.33522424 0.41094655 -0.030810235
-0.014469017 0.09379546 0.29926205 0.12683287 -0.06821064 0.049671505 -0.1259432 0.03133382
-0.8068724 0.21976975 0.30881003 0.0507216 0.13996047 0.13439514 0.5365542 0.5742513

mean.0.bias f4 [64]
00000000: 294b 753d 9b1e b73c 29e8 b43e fca7 8ebc
00000010: 879f 033e de42 0d3e 277d 503e 1c0a 0bbe
00000020: 4b34 c2bd 22b5 783d 671b 76be 99fa aebc
00000030: 14b9 ce3e 9aea cc3e 158d 85bd ca2d 06be
00000040: baac 47be c659 c6be ecec 3e3b e46f 52bd
00000050: fd4c 33bf 785a 56bd 15bc 43be e4ef 29be
00000060: f28d 133e 4565 9bbb 2473 17be 63cf 6d3e
00000070: b1fc 113d e928 6fbd 5bba 3bbe 08b8 1ebb
00000080: 53c5 4bbe 5a47 19be 229c 2b3e 07ae 9a3e
00000090: 8ffe 1fbc e05e f8bd d547 363e 9de9 473e
000000a0: e0bd a2be af1d b2be fa83 383e 1610 43be
000000b0: 89d1 983e 2315 4c3e e93f 1c3e 418d 9fbd
000000c0: 9022 43be 4004 363d 752d 0dbe b07d a03e
000000d0: 139e 94be 34f9 69bd a20e 7bbe 6219 dfbd
000000e0: 5a4c 123e 05f2 dc3d bd50 89bb c5c3 d83e
000000f0: ad7c 093c 23d8 7cbe 6eb8 263d 4935 4bbe
0.05988613 0.022353461 0.35333374 -0.017414086 0.12853824 0.13795039 0.20360242 -0.13578075
-0.0948263 0.060719617 -0.2403389 -0.021359729 0.40375578 0.40022737 -0.0652105 -0.13103405
-0.19499484 -0.38740367 0.0029132916 -0.05137624 -0.7003935 -0.05233237 -0.19114716 -0.16595417
0.14409617 -0.004742297 -0.14790016 0.23223643 0.035641376 -0.058388624 -0.18332808 -0.0024218578
-0.19899492 -0.14968625 0.16758779 0.30210897 -0.009765281 -0.12127471 0.17800839 0.1952271
-0.31785488 -0.34788272 0.18019095 -0.19049105 0.29847363 0.19929938 0.15258755 -0.07790614
-0.19056153 0.044437647 -0.13786872 0.31345892 -0.2902685 -0.057122424 -0.245173 -0.10893513
0.14286938 0.10788349 -0.004190533 0.4233686 0.008391541 -0.24691825 0.04070323 -0.19844545

mean.2.weight f4 [64, 64]
00000000: b730 663b 6337 ae3a 7b2a 483a 23de 1f3b
00000010: 3d38 f13a 809e e83a 375f 203a 670f c839
00000020: eb81 1bbb a07e 85bb f89d 5cbb 3ebc f939
00000030: 676d 6e3a 82f2 0c3a 243b 003b 99a1 a6b9
00000040: cee6 223b b160 c9ba 646c 58b9 9f12 04bc
00000050: 42b5 0ebb 26c1 5f39 4db4 383a 557d 8339
00000060: 224a 7a3b 7f48 453b 6361 043a 83e8 10bb
00000070: 222d e439 530f 573b 5fa0 383a e2a0 79bb
00000080: 782a 8bbb ac90 0b3a 5415 1abb 6785 b7b9
00000090: 0271 83bb 5ee0 25ba 1ae4 3abb 7719 633a
000000a0: 64b1 9b3b ec13 adba 6b8e ee39 d006 febb
000000b0: 4cb8 d6ba 6a5f ab3b b1ac 093b 026a 783a
000000c0: b936 153a bc06 0b3b 3835 a639 0051 a7b9
000000d0: 9778 633b 2825 843b 5f41 3b3b 227e f63a
000000e0: 84ff a3ba 2b3f f33a d491 2dba bad0 05bc
000000f0: 012d 80bb cca5 4cba d9a4 e9ba ebaa 763b
00000100: 5d31 a0bd 0b88 143e 9627 123c e058 863d
00000110: 2536 0a3f 8a91 013e 909a f43c 3395 a9be
00000120: 4948 203d b6f2 cc3e cc6f 503c 9a65 c33e
00000130: 183d 9cbc 9079 403e 3aa9 c03c e024 66be
00000140: 8d1e dcbd 1504 2cba 368e 1c3e a596 a93d
00000150: d165 a23e b26e 5cbe 8675 8a3d fb85 16be
00000160: 1c79 0f3e ea6d 6f3d 5106 003d 6719 e03d
00000170: b226 a63d b43a 963e 735b d33b e91b dfbc
00000180: 14cf 2bbe c449 c53e aa3c 1bbe 9b1b f9bd
00000190: 5d1e 0cbd 48b1 453d 27da 36be 1aa1 9e3e
000001a0: 9e93 763e 4b98 a33c 06c9 903e 735d d2bd
000001b0: 2a37 ebbe 326f 493d 5559 87be 4c4c 9a3d
000001c0: 198b f1bd 0e84 203e 7763 a6be db5f a63e
000001d0: 3150 afbe 26fe 2a3e b4f2 72bd 272e 38bd
000001e0: 7c70 c1bd 17d4 c6be 2039 af3d 6afe 903a
000001f0: 568a 30be 9cca 783e a63a 233e bfb5 49be
00000200: 60c8 ab3a bd9f 7e3b 57ce 82bb fec1 793b
00000210: 311d af3a 5d37 13bc 6500 9d3a f988 ae3a
00000220: ff48 7b3a 2814 833b 66ff fc3a 3609 843b
00000230: 4ddd 11ba 77b9 8cba d796 d3b9 cd76 9339
00000240: e9c3 483b 2844 7b3a 3163 313a 36ea a33a
00000250: 3b3d f2b9 1dbb af3a b221 abba e34b 9a39
00000260: a276 2639 7442 3abb 19a3 71bb acf6 e63a
00000270: e831 aa3a 984c b639 036f d53a 61e4 963a
00000280: ea66 713b b665 063b 9a7b 093c db81 1c3b
00000290: b33d 903b 38b4 a23b 3c86 073b 8564 193b
000002a0: c076 6dbb 661d 85bb a47e d638 8db2 73bb
000002b0: b01f 75ba 6642 88bb 1f6e 0d3b e7d3 6abb
000002c0: 9293 eab9 5027 b33a d968 6e3b f62a 27bb
000002d0: f4f0 f3ba 1be1 96ba 0ce5 48bb 2bdc 2e3b
000002e0: 6700 4a3a 7f07 abbb 4eb8 ac3a db1a 9f3a
000002f0: f4bf 4e3b 3c6c 833b eceb 6dbb d984 13ba
00000300: 2186 ccbe c6da ae3d 35ff 933e 0e4b ec3d
00000310: c3ac 213e 0f50 5a3e 6de3 7a3e a62f ca3d
00000320: 9607 5d3c bc32 fa3d 9a2b 533c 67c1 183d
00000330: e287 dd3d 2f8c 323e 9e53 e6bd a0bb ebbe
00000340: 0194 7cbe 10a0 a33d fb36 12bf 2013 51be
00000350: f708 c23d c404 9bbe c079 54be f1b4 673d
00000360: 0ba3 273e ec30 3cbe c8f7 10bf ae6b a83b
00000370: fb06 b83d 99ee d8bd a18d 89be afff efbd
00000380: 400c 2bbd 3b7e b53c 182b 143d 0b6c 34be
00000390: f7e3 653e 7d52 aa3d ced3 cdbe 71dc 74bd
000003a0: 909a cb3e 4732 e23c f3a5 353e 3da7 6cbe
000003b0: 7aea 84be 2546 a43e a26b 1dbe 9837 9bbe
000003c0: 3e3c e1bd 2264 7e3d dab6 fb3d bcf8 96bd
000003d0: ffbe 0dbf 8ff7 9dbe 8009 883e 1d74 3f3e
000003e0: 7026 003d 39b8 45bc 7ca8 33be 3b3d c33e
000003f0: 346f a23d 37b4 8bbe 3851 52bd c6f0 22bd
0.003512425 0.0013291653 0.00076357246 0.0024393878 0.0018403601 0.0017747432 0.0006117704 0.00038158448
-0.002372856 -0.0040739328 -0.0033663493 0.00047633232 0.0009095282 0.00053767127 0.00195665 -0.00031782387
0.0024856809 -0.0015363899 -0.00020639744 -0.00806108 -0.0021775519 0.0002133889 0.000704591 0.00025079647
0.003819116 0.0030103025 0.0005049912 -0.0022111244 0.00043521175 0.003281553 0.000704294 -0.0038090278
-0.004247006 0.0005323987 -0.0023511248 -0.00035003872 -0.0040112743 -0.0006327684 -0.0028517307 0.00086631574
0.004751371 -0.001320479 0.00045501007 -0.007752277 -0.0016381829 0.00522988 0.0021007473 0.00094762456
0.0005692053 0.002121373 0.00031701638 -0.00031913072 0.0034709328 0.0040327497 0.00285729 0.0018805901
-0.0012512063 0.0018558254 -0.00066211564 -0.00816744 -0.003911615 -0.0007806688 -0.0017825618 0.0037638496
-0.07821915 0.14505021 0.008920571 0.0655992 0.5398887 0.12653175 0.029858857 -0.33121642
0.039131436 0.40028924 0.012721967 0.38163453 -0.0190721 0.18796372 0.023518194 -0.22475004
-0.107480146 -0.00065618876 0.15288624 0.08280686 0.31718305 -0.21526602 0.06760697 -0.14699547
0.14011043 0.05845443 0.031256024 0.10942345 0.08112849 0.29341662 0.0064501106 -0.027234988
-0.16778213 0.3853284 -0.1515986 -0.121634685 -0.034208644 0.04826477 -0.17856656 0.30982286
0.24079749 0.01997008 0.2827837 -0.1027173 -0.45940524 0.04917831 -0.26435342 0.07534084
-0.11794109 0.15675375 -0.3249776 0.32495007 -0.3424087 0.16698512 -0.05931349 -0.04496589
-0.09445283 -0.38833687 0.085558176 0.001106215 -0.17240271 0.2429604 0.15940341 -0.19698237
0.0013105981 0.0038852536 -0.003991883 0.0038110013 0.001336014 -0.008985368 0.0011978267 0.0013315968
0.00095857674 0.0040002055 0.0019302189 0.0040294183 -0.00055642874 -0.0010736425 -0.0004035744 0.00028126538
0.003063435 0.0009585046 0.0006766795 0.0012505713 -0.00046203457 0.0013407205 -0.0013056307 0.0002942971
0.00015875188 -0.0028420957 -0.0036870895 0.0017621121 0.0012984844 0.00034770812 0.0016283694 0.0011512154
0.0036835023 0.0020507402 0.008391285 0.002388111 0.0044018864 0.0049653314 0.0020679375 0.0023405862
-0.003623411 -0.0040623425 0.00010227904 -0.0037185282 -0.000935073 -0.004158306 0.002158053 -0.003583187
-0.00044741906 0.0013668332 0.0036378412 -0.0025507784 -0.0018611238 -0.0011511178 -0.00306541 0.0026681523
0.00077057484 -0.0052193995 0.0013177486 0.0012138741 0.0031547518 0.0040107053 -0.003630395 -0.0005627401
-0.39946082 0.085378215 0.28905645 0.11537753 0.1578856 0.21319602 0.24500819 0.098723695
0.013490578 0.12216708 0.012888813 0.037293818 0.10816933 0.17436288 -0.112464175 -0.46041584
-0.24665834 0.07989514 -0.57115144 -0.20417452 0.09474366 -0.30277073 -0.20749569 0.056569044
0.1637079 -0.18378037 -0.56628084 0.0051397895 0.089857064 -0.10592384 -0.26865867 -0.1171869
-0.04175973 0.022154918 0.03617391 -0.1761934 0.22450243 0.08316515 -0.40200657 -0.05978054
0.3976636 0.027611865 0.17739086 -0.23110671 -0.2596014 0.32084766 -0.1537309 -0.30315852
-0.109978184 0.062107213 0.122907355 -0.07371661 -0.5536956 -0.30852935 0.26569748 0.18696637
0.031286657 -0.012067848 -0.1754474 0.38132653 0.079313666 -0.2728593 -0.051346987 -0.0397804

mean.2.bias f4 [64]
00000000: 5848 0a3a e22e 1f3e d541 34ba 5537 0abe
00000010: 7032 18ba b96d a73d f0ac 0dbe 8cbd d23c
00000020: ed1b d4ba c615 79be f9db 37bd d62c 8e3d
00000030: 0245 863a e4ea 683a f800 0c3e d72a f3bc
00000040: 5542 3fbe 4ea7 2fbe ab90 65ba 64a7 3e3a
00000050: 1def 58bc dfc2 593c 8f90 21ba 77a0 9938
00000060: 6743 a33e cbe8 25be 129b 8f3e d0b0 86bc
00000070: 3851 c53a 7e93 c139 a74a 5fba 3636 123d
00000080: 8a74 103b e841 9d3d 7624 1abe d7b3 8a3e
00000090: 8234 0c3a bff1 403e 5b3c 04be 9c4b 91be
000000a0: a6e9 9fba 3bbc 35be 1c67 2bbb 4c01 173a
000000b0: e54a 28be 8b32 f1b9 a902 023e 8642 9c3c
000000c0: 8271 90bc 4e1d adbd 4d98 05bc e5d7 65be
000000d0: f6b3 c5bd 5d34 a83e d330 e3bd f6a6 a8ba
000000e0: a5ee e93c 5cdc 66be 6e0a 523b 1097 86bd
000000f0: 32e6 48be 4ae8 9d39 09d9 91bd 7ed7 4fba
0.0005275062 0.15545228 -0.0006876265 -0.1349767 -0.00058058556 0.08175225 -0.13835502 0.025725149
-0.0016182639 -0.24324712 -0.044887517 0.069421455 0.0010243955 0.0008885099 0.13672245 -0.029683514
-0.18677647 -0.17153665 -0.0008757214 0.0007272868 -0.013240603 0.01329109 -0.00061632035 7.3254974e-05
0.3188736 -0.16202085 0.28047997 -0.016441733 0.0015054112 0.0003692172 -0.0008517899 0.03569623
0.002204212 0.07678586 -0.15052971 0.27090332 0.00053484004 0.18842219 -0.12913649 -0.28377998
-0.001220037 -0.17747585 -0.0026153987 0.0005760386 -0.1643482 -0.0004600476 0.12696327 0.01907469
-0.01763225 -0.08452855 -0.008153987 -0.22445638 -0.096534654 0.3285245 -0.11093297 -0.0012867141
0.028556177 -0.22544998 0.0032049674 -0.06571782 -0.19619063 0.00030118442 -0.07121474 -0.0007928534

mean.4.weight f4 [2, 64]
00000000: 8833 403b 0a7b cfbc a3a1 dbba 7e77 0f3e
00000010: 8509 51bb e707 b8be 6921 9d3d 88af db3b
00000020: 7318 32ba c858 36be d0dd 303d 6310 56bc
00000030: 3909 8bbb 9877 913a b9de d53d 4a23 1f3c
00000040: f7be 42bd 8a76 723d 0c04 8d3a 04ba 4039
00000050: 0324 893d a9d5 cd3d 1f25 57bb fc38 9abb
00000060: 1924 35be 1b8e b8bc 5c7b 683d 80b3 27be
00000070: cbea 03bb 9737 083b 0c95 b9b9 0ae1 30bc
00000080: d09a 52bb 1ee7 1bbe 9e25 ce3a 6a59 9f3d
00000090: d988 35bb bb3f 45be 5e99 423e 1528 2abe
000000a0: 28dd 8a3b 68ce 35bd e36e 633b 2e33 033b
000000b0: 31be 8d3d dbb9 c53a 9ec9 70bd d728 283e
000000c0: 7acf debd 18e0 e4bd e35f cfbb da29 8e3d
000000d0: 82ed 41bc d6f0 efbd e134 3d3d 3e5e 31ba
000000e0: b4ac 56be 2745 7a3d a9b9 95bb 050c 5a3b
000000f0: bb28 b9bd 19f3 fcba 2a33 9fbd 797e 253b
00000100: 4d97 15ba 6e6c 22bd 1c8f e2ba 333b 85be
00000110: 2c0b 7e3a 4ba5 84bd b8e0 363e 24bb 963b
00000120: c230 d53b c337 a23c 323b 443d cc5e 44bd
00000130: 81e9 0f3b 8cc8 47bb c2fc 4c3e ccc4 613b
00000140: c69c 13be 8e8a 81bd 22bb fc3a be58 b1bb
00000150: e6b5 06be 69ff 17be 1968 943b a36f 01bb
00000160: 38a6 413d 0445 71bd 696c 8b3e 1cc9 593e
00000170: a8bb b3ba 7bbc 84ba ba1e 323b 2bc5 d0bd
00000180: 6c36 11bb 5f4e abbd e037 e2bd 39a0 19be
00000190: 5d30 0fbb e88d f23d c723 063d 073c 563e
000001a0: 8640 2e3b 1508 f3bd 12a1 2c3b 2073 71ba
000001b0: bce1 d83d 560d b33a 57f4 de3d f226 083e
000001c0: f68d 93bc 1d67 14bc 211f 853b 16e2 f03d
000001d0: 11e7 4f3e b070 7abe d5fc 8abd 82f7 04bb
000001e0: 1c36 a33d b5d4 a0bd 4d6c b2bb ee22 17be
000001f0: eef9 a63c 3d10 ae39 f512 ebbd 91c6 873a
0.002932759 -0.025327224 -0.0016756546 0.14010426 -0.0031896543 -0.3594353 0.07672388 0.0067042746
-0.00067938044 -0.17807305 0.043180287 -0.01306543 -0.004243043 0.0011098264 0.104428716 0.009713003
-0.0475454 0.05919508 0.0010758652 0.00018379843 0.06696322 0.10050518 -0.0032828522 -0.0047065
-0.17689551 -0.022528699 0.05675827 -0.16377068 -0.0020128961 0.0020785087 -0.00035396998 -0.010795841
-0.0032135732 -0.15224883 0.0015727764 0.07780726 -0.0027699976 -0.19262592 0.19003817 -0.16616853
0.0042377897 -0.044386297 0.0034703545 0.002001952 0.06921042 0.0015085296 -0.058786027 0.16421829
-0.10879417 -0.11175555 -0.0063285693 0.06941576 -0.011836411 -0.11715858 0.046193007 -0.00067660573
-0.20964319 0.061101105 -0.0045692516 0.0033271324 -0.09040972 -0.0019298523 -0.07773431 0.0025252386
-0.00057064445 -0.039654188 -0.0017285082 -0.26021728 0.0009690996 -0.0647684 0.17859161 0.0045999456
0.0065060565 0.01980198 0.047908016 -0.047941968 0.0021959248 -0.0030484525 0.20018294 0.0034449575
-0.14415273 -0.06325255 0.0019281844 -0.00541219 -0.13155326 -0.14843525 0.004529011 -0.0019750379
0.04727766 -0.05890371 0.27231148 0.21268123 -0.0013712542 -0.0010126972 0.002717896 -0.10193857
-0.0022157682 -0.083645575 -0.110458136 -0.15002526 -0.0021848895 0.11843473 0.032748964 0.20921336
0.0026588752 -0.11866776 0.0026341123 -0.00092105754 0.105899304 0.0013660591 0.10886448 0.13296106
-0.018012028 -0.009057787 0.0040625487 0.117618725 0.20302989 -0.2445705 -0.06786505 -0.0020289128
0.07969305 -0.07853071 -0.0054450394 -0.14759418 0.020382848 0.00033199965 -0.11478225 0.001035886

mean.4.bias f4 [2]
00000000: bbe8 503d 8300 45bd
0.0510032 -0.04809619
